This is a simple example about the Neural Networks. Using 4 dense layers with batch normalization, it preditcs the probablity of passengers on board the Titanic surviving.
The model structure is as follows.
_________________________________________________________________
Layer (type)                 Output Shape              Param #   
=================================================================
batch_normalization_3 (Batch (None, 6)                 24        
_________________________________________________________________
dense_4 (Dense)              (None, 800)               5600      
_________________________________________________________________
batch_normalization_4 (Batch (None, 800)               3200      
_________________________________________________________________
dense_5 (Dense)              (None, 400)               320400    
_________________________________________________________________
batch_normalization_5 (Batch (None, 400)               1600      
_________________________________________________________________
dense_6 (Dense)              (None, 200)               80200     
_________________________________________________________________
dense_7 (Dense)              (None, 1)                 201       
=================================================================
Total params: 411,225
Trainable params: 408,813
Non-trainable params: 2,412
_________________________________________________________________
